data.pth (torch, 5279 bytes, 6 tensors)

l1.weight f4 [8, 54]
0.45866814 0.48754743 -0.2674094 0.21371272 0.23812537 -0.022661494 -0.23376736 -0.04981052
-0.6229411 -0.18321447 0.40205124 0.33479816 -0.30258915 0.2417029 0.21974804 0.20687371
0.45068935 -0.03292363 -0.3641602 0.49898922 0.22918607 0.39479855 0.39786923 0.40847585
-0.16434614 0.22234783 0.048572678 0.50470465 0.2747494 0.38597283 -0.15846236 0.13231732
0.34953523 -0.2032245 0.3709748 0.29218245 0.10781224 -0.3813249 -0.15704098 -0.021274516
-0.0531815 -0.41617343 0.30284348 0.35849056 0.071476266 0.3751174 0.70560974 0.255014
0.6277024 -0.23147501 0.24205148 -0.3390873 -0.22162531 0.22728156 0.46484196 -0.07573136
0.34619716 0.41433325 0.35032684 -0.1277806 0.21367587 0.5312044 -0.09369201 0.46029478
0.28827408 -0.30018008 -0.1274614 -0.26647362 -0.14076029 -0.23718877 0.4674294 -0.06328106
-0.3623319 0.43366575 0.23075187 0.49288827 0.3591491 0.26323044 0.28208837 0.25595146
-0.42778093 -0.20118687 -0.1269148 -0.38659877 -0.03536256 -0.3914174 0.19536242 0.51599133
-0.2974608 -0.07806406 -0.16714531 0.067155555 0.18204015 0.18690117 -0.029396553 -0.5511752
-0.20154287 -0.08440625 -0.07657579 -0.20416799 0.58520836 0.31609234 0.30420312 -0.46037298
-0.12764563 -0.22147736 0.372473 0.35053402 0.18432748 0.5908086 -0.54301107 -0.20765747
-0.38800445 0.31339163 -0.18256901 -0.34212333 -0.21919653 -0.35035813 -0.19341405 0.11963411
0.25486946 -0.015456542 0.48491824 0.22533017 -0.33817893 0.30498436 0.071889445 -0.520149
0.38677007 -0.49285528 -0.5315066 -0.427334 0.094659604 -0.28890693 0.23496722 0.44515446
0.055107795 0.49630463 0.30486014 -0.014872521 0.002130118 -0.5958241 0.57101583 0.11968835
0.18759112 -0.27673164 -0.14627805 -0.12396402 0.23411448 0.1896738 0.042809725 0.45526582
-0.39349067 0.41646898 0.5841287 0.36093548 -0.035171855 0.25110754 0.28331217 0.22782372
-0.17349853 0.3523191 -0.061683916 -0.4387539 0.20781335 -0.20789817 0.3191461 -0.35818714
0.25965223 0.2172433 0.39763921 0.03520452 0.04817745 0.27551195 0.5936728 0.39207798
-0.1502142 0.2811705 -0.08665801 -0.35809723 0.42418578 -0.12918623 -0.24079941 -0.085990064
-0.18265824 -0.3406197 0.46568462 -0.036139376 0.6023971 -0.4321317 0.6521356 -0.35212022
-0.26816782 0.4956132 -0.06960246 0.1853463 -0.009688447 0.18041073 0.662849 0.4155424
0.47592834 0.25390258 -0.3699747 0.54474944 0.36227876 -0.09190371 0.33536446 -0.12011142
-0.6389223 -0.056163706 0.3685379 0.76052463 0.30020106 0.33423576 0.45093316 0.28030387
-0.044155348 0.08208832 0.36258987 -0.18397813 -0.28849146 0.69499046 0.19613484 0.25859398
0.6115291 0.28731233 -0.097923815 0.71140075 0.5745788 0.78665763 0.1760492 0.5215051
-0.27323696 0.69478554 0.1957432 -0.44123822 0.09316585 -0.4252493 -0.44123486 0.022224922
0.50939256 -0.006768281 0.3328939 0.22611597 0.1773171 0.14889447 0.66777194 0.76523
0.28171036 0.5087449 0.24703045 0.5158063 0.16845915 0.62387425 0.23312196 0.37255463
00000000: 8dd6 ea3e d19f f93e e3e9 88be 82d7 5a3e
00000010: 23d7 733e 99a4 b9bc b660 6fbe 1e06 4cbd
00000020: 1179 1fbf 939c 3bbe a9d9 cd3e aa6a ab3e
00000030: f7ec 9abe f780 773e a105 613e b4d6 533e
00000040: c1c0 e63e eeda 06bd 3573 babe 847b ff3e
00000050: c1af 6a3e 0923 ca3e 84b5 cb3e bf23 d13e
00000060: 5b4a 28be 26af 633e 25f4 463d 5334 013f
00000070: f4ab 8c3e 3b9e c53e f543 22be 317e 073e
00000080: 48f6 b23e 151a 50be 69f0 bd3e f098 953e
00000090: aacc dc3d 043d c3be 5acf 20be e547 aebc
000000a0: d8d4 59bd af14 d5be 4d0e 9b3e 138c b73e
000000b0: 2662 923d 630f c03e d7a2 343f 3291 823e
000000c0: 1bb1 203f c907 6dbe 58dc 773e da9c adbe
000000d0: bff1 62be 7fbc 683e c4ff ed3e 0b19 9bbd
000000e0: c140 b13e 7d23 d43e 0a5e b33e ebd8 02be
000000f0: d9cd 5a3e 03fd 073f 99e1 bfbd c2ab eb3e
00000100: a998 933e 34b1 99be 3e85 02be 3b6f 88be
00000110: 7723 10be 9de1 72be e852 ef3e 8099 81bd
00000120: 9183 b9be 7009 de3e 384a 6c3e da5b fc3e
00000130: 64e2 b73e 24c6 863e e36d 903e 120c 833e
00000140: 1a06 dbbe ee03 4ebe f4f5 01be 46f0 c5be
00000150: 55d8 10bd dd67 c8be 160d 483e 0218 043f
00000160: c84c 98be 0de0 9fbd 2428 2bbe da88 893d
00000170: bc68 3a3e 0563 3f3e 0ad1 f0bc d119 0dbf
00000180: 4161 4ebe 2fdd acbd c5d3 9cbd 6a11 51be
00000190: 37d0 153f dbd6 a13e 83c0 9b3e 02b6 ebbe
000001a0: 89b5 02be f6ca 62be c8b4 be3e 3279 b33e
000001b0: 58c0 3c3e 3b3f 173f c602 0bbf 29a4 54be
000001c0: 85a8 c6be de74 a03e 5ff3 3abe ca2a afbe
000001d0: 0e75 60be 2462 b3be 550e 46be ba02 f53d
000001e0: 407e 823e 703d 7dbc 3447 f83e f4bc 663e
000001f0: ca25 adbe e926 9c3e c63a 933d 7c28 05bf
00000200: ba06 c63e 8757 fcbe d110 08bf 86cb dabe
00000210: e5dc c13d 9ceb 93be 3f9b 703e 49eb e33e
00000220: b6b8 613d a41b fe3e a116 9c3e e0ab 73bc
00000230: 7399 0b3b ee87 18bf 182e 123f 2a1f f53d
00000240: e317 403e c5af 8dbe eac9 15be d9e0 fdbd
00000250: b5bb 6f3e d939 423e 4059 2f3d 9a18 e93e
00000260: 9c77 c9be 6c3b d53e 7589 153f 89cc b83e
00000270: 5d10 10bd 2b91 803e 4b0e 913e 9f4a 693e
00000280: 99a9 31be 2b63 b43e 46a8 7cbd 5aa4 e0be
00000290: 06cd 543e 42e3 54be 1e67 a33e 4e64 b7be
000002a0: 23f1 843e 0775 5e3e 5e97 cb3e 9d32 103d
000002b0: b855 453d e70f 8d3e f1fa 173f 72be c83e
000002c0: c0d1 19be 94f5 8f3e c179 b1bd 8558 b7be
000002d0: e12e d93e 6549 04be 1f94 76be 8f1b b0bd
000002e0: c30a 3bbe b565 aebe 376e ee3e e206 14bd
000002f0: b236 1a3f 5e40 ddbe 5cf2 263f 1a49 b4be
00000300: 4b4d 89be 03c1 fd3e bc8b 8ebd 6ccb 3d3e
00000310: 4bbc 1ebc 97bd 383e 79b0 293f f9c1 d43e
00000320: e1ac f33e 85ff 813e 536d bdbe b374 0b3f
00000330: 9a7c b93e 0338 bcbd e4b4 ab3e fafc f5bd
00000340: 6990 23bf ea0b 66bd 00b1 bc3e beb1 423f
00000350: f4b3 993e f320 ab3e b6e0 e63e fd83 8f3e
00000360: 3ddc 34bd ec1d a83d 61a5 b93e c364 3cbe
00000370: 27b5 93be e5ea 313f 92d7 483e 6e66 843e
00000380: 2c8d 1c3f 9a1a 933e 488c c8bd 5c1e 363f
00000390: 9917 133f 6562 493f 3e46 343e 5c81 053f
000003a0: b7e5 8bbe 77dd 313f e870 483e fae9 e1be
000003b0: bdcd be3d 47ba d9be 89e9 e1be 0a11 b63c
000003c0: 8d67 023f 75c8 ddbb 1271 aa3e f28a 673e
000003d0: 9d92 353e cb77 183e 1af3 2a3f 1de6 433f
000003e0: 573c 903e 1b3d 023f 8df5 7c3e e20b 043f
000003f0: 8e80 2c3e 39b6 1f3f 86b7 6e3e 7bbf be3e

l1.bias f4 [8]
0.79815376 0.78851163 0.5316549 0.3579185 0.4412658 0.35935324 0.6530772 0.61932325
00000000: ce53 4c3f e6db 493f 891a 083f 1841 b73e
00000010: 97ed e13e 26fd b73e 1130 273f f88b 1e3f

l2.weight f4 [8, 8]
1.1354465 0.4421665 0.93392634 -0.9594826 0.9441392 0.658609 -0.57196194 -0.64935184
-0.34742087 0.21534215 -0.65483415 1.1009175 1.0954257 0.41750297 1.3232863 0.66460943
0.7757551 1.166092 0.6789248 -0.84058785 -0.34547096 -0.027817855 0.30538458 0.64094275
0.06567377 0.3434655 -0.9359419 0.35498628 0.22994688 -0.9858091 1.225725 1.2935612
0.60003746 -0.9788203 0.9289473 0.8627896 0.27709842 0.43797216 -0.27881193 -0.7954477
0.41245034 1.1364555 -0.68508846 0.20793073 0.44335306 -0.3759471 0.036955718 0.7006603
0.5321565 -0.9406334 1.296969 0.23356701 1.2481626 1.0461596 0.1272815 -0.24867386
1.164755 1.0565856 -0.1778963 -0.02988064 -1.0227175 -0.5776149 0.06069612 -0.2017098
00000000: 5056 913f a663 e23e cc15 6f3f a7a0 75bf
00000010: 1bb3 713f 999a 283f 196c 12bf ec3b 26bf
00000020: 26e1 b1be a782 5c3e 36a3 27bf ddea 8c3f
00000030: e936 8c3f f3c2 d53e 7261 a93f d823 2a3f
00000040: e397 463f 8142 953f 04ce 2d3f c430 57bf
00000050: 92e1 b0be 45e2 e3bc 5e5b 9c3e d314 243f
00000060: f87f 863d b6da af3e e399 6fbf c3c0 b53e
00000070: 3277 6b3e fc5d 7cbf 8fe4 9c3f 6a93 a53f
00000080: 0e9c 193f f893 7abf 7ecf 6d3f c7df 5c3f
00000090: d8df 8d3e e33d e03e 70c0 8ebe 76a2 4bbf
000000a0: b12c d33e 6077 913f f561 2fbf cbeb 543e
000000b0: 2cff e23e 237c c0be e15e 173d 795e 333f
000000c0: 693b 083f 5acd 70bf 1503 a63f 312c 6f3e
000000d0: cbc3 9f3f 8fe8 853f 1556 023e 5ca4 7ebe
000000e0: b116 953f 323e 873f 732a 36be 3ec8 f4bc
000000f0: 68e8 82bf 92de 13bf 7f9c 783d 048d 4ebe

l2.bias f4 [8]
0.4970369 0.32395542 0.69237524 0.31383875 -0.082222775 0.048675437 0.52872914 0.35560486
00000000: 9f7b fe3e 7cdd a53e 813f 313f 79af a03e
00000010: 6a64 a8bd e55f 473d cb5a 073f d711 b63e

l3.weight f4 [7, 8]
0.41188967 0.30559587 -1.6348423 -1.4978089 0.11841399 -0.28247717 0.33853123 -0.3499769
0.512961 -1.0057405 0.0034303563 -1.0301039 0.7843639 -1.1395494 0.2221511 -0.9579283
0.09385928 0.058078658 0.42521566 -0.23767656 -1.2381986 -0.14058022 0.2885093 -1.3486525
-0.7776874 -0.3219107 0.5528652 0.55994505 -0.42405415 -0.08207765 -1.2542399 0.8433549
-1.243858 0.54372203 -1.7609792 0.23070157 0.25104353 -0.177089 0.12106166 -0.0136713665
-1.3690295 0.50482166 -0.56879497 0.57439166 -0.8559855 0.47471717 -0.6964601 -1.3794118
0.5960855 -1.5602739 0.7195639 -1.2447883 -0.27980006 0.31671602 -0.6415807 0.71565074
00000000: 34e3 d23e 1077 9c3e 8342 d1bf 34b8 bfbf
00000010: 0983 f23d d9a0 90be f753 ad3e 2c30 b3be
00000020: 6951 033f 1bbc 80bf d4cf 603b 72da 83bf
00000030: 13cc 483f c1dc 91bf 947b 633e ca3a 75bf
00000040: 4b39 c03d e3e3 6d3d deb5 d93e 7c61 73be
00000050: 4b7d 9ebf 43f4 0fbe 7eb7 933e a5a0 acbf
00000060: 8516 47bf 7bd1 a4be 9388 0d3f 8f58 0f3f
00000070: a01d d9be 5418 a8bd ef8a a0bf 1be6 573f
00000080: bd36 9fbf 5e31 0b3f c467 e1bf 083d 6c3e
00000090: c788 803e d256 35be 2def f73d defd 5fbc
000000a0: 5c3c afbf fe3b 013f 8c9c 11bf 550b 133f
000000b0: de21 5bbf 210e f33e 364b 32bf 9190 b0bf
000000c0: 0f99 183f 0eb7 c7bf 5735 383f 3955 9fbf
000000d0: f441 8fbe 9a28 a23e a23e 24bf e334 373f

l3.bias f4 [7]
-0.34417522 -0.26647264 0.5059663 0.086136684 0.27305847 -0.38070363 -0.12543128
00000000: bc37 b0be 1a6f 88be 0287 013f 6e68 b03d
00000010: 52ce 8b3e 96eb c2be 0f71 00be
